template_of_button_is_in_this_folder/data.pth (torch, 4991 bytes, 6 tensors)

l1.weight f4 [8, 54]
00000000: 79af 4fbe 575b a53e 1b27 10bf bf17 2abe
00000010: 172f 33be 6bf4 453f c9a7 c0bd 1824 e9bd
00000020: f93d 92be 7eeb 8ebe 3352 f6bd ac10 2ebe
00000030: c780 593e 8566 bebc f86c e73e ead1 85be
00000040: 6766 5ebe f5d4 463f 798c d43e c83c 85be
00000050: c377 3ebe a9d5 c5be f73e 9abe 46ca 8fbe
00000060: 89e0 2abe b7ff 8abe a944 f43e 7672 d13e
00000070: bf4a e13e f807 6c3e 4288 1e3f 7c02 3a3c
00000080: 0e80 94bd 56f2 00bf 4040 9e3e f67f 5fbe
00000090: 3df9 fc3e bfca cdbe 63ec 3bbe 9a51 5ebe
000000a0: d7a7 0b3f b602 0d3f 5b1d 2fbe da8a e63e
000000b0: caa6 96be 43a1 fd3e 960e 4ebf 786f a1be
000000c0: c773 28bd 678e f03e f268 1cbe 0ff9 c93e
000000d0: 18bb c4bd a24a d53d e512 343f f6af 0d3e
000000e0: 1836 033d 1b72 153e 2435 8d3e 51e2 f7be
000000f0: 9ea0 35be 84a9 8ebe 8cb6 56bb b1eb 35be
00000100: 5310 0b3f a66c 013f 76ea dfbd ceda a93e
00000110: 00dc 8b3d 4430 e83e 8abb a33e 409e fcbe
00000120: 5edc 55be 4afe 2b3f ac11 ff3e 1810 c83e
00000130: d9f8 e73e 5b0e 223f e2cb f03e dd17 003e
00000140: 32a5 2abd 2ea3 d0bd 42f3 4dbe e809 2dbe
00000150: df94 8cbe 0c93 a13e 3a11 ac3e f6e3 133e
00000160: 31f7 94b6 8cb6 923e 4373 723d 62b2 45be
00000170: da71 0bbc 0d50 86bb 14dd 93be d57b a3be
00000180: f7a8 a03e 48f1 763d 881a c53e f0f6 e93d
00000190: 828d 773f 152f 0b3f 187f 203e dca1 04be
000001a0: 2fa7 b33e 3838 5bbd ab47 fcbd e09c 593e
000001b0: 3da4 12be 641c 983e ec2e b33e e12f a9bd
000001c0: 3a7b b5be 1f82 9abd 95aa 853e 16bd 853e
000001d0: aa40 9c3d eea8 923e 4698 19be 51d9 313f
000001e0: dee0 dd3e 1342 323f d8f5 6e3e 69ab bb3e
000001f0: c27b 06be c5fd 6a3d f97d a4be a92e 90be
00000200: 8687 ddbd 4c09 90be bc05 90be b37c 023e
00000210: f7e3 103f 8777 1e3c ca3b 26be cd36 153f
00000220: e6dc a33d acb6 103f 4060 a53d dba5 443f
00000230: 344a fdbd ee12 e43e ad5a 153f b910 f33e
00000240: 28e4 f1bc da6c ddbd 2374 2c3e 02f4 7d3e
00000250: 76db 313d cb20 7bbe f506 d23e 28ae d13e
00000260: 1a88 093f 3a6b 153f 5d0f 90be 7219 99bd
00000270: 3762 55be 30a0 d4be b984 0e3f a0fd 34be
00000280: 6043 5c3e f137 5ebd 38f4 16be 4b64 edbe
00000290: 3a9e 893e 7761 013f 7a25 3a3f ed69 563d
000002a0: d447 c73e 962a b93e db80 32be fa74 8e3e
000002b0: a664 d63e bab2 04bf e7a8 c93e 2ede 13bf
000002c0: 2919 9cbe 00e8 9fbe c0b4 2c3f a031 393c
000002d0: 2f45 fe3e 67b8 233f f6e9 9cbe 0a93 4a3f
000002e0: 5116 523f d93c 053f 22ed 753d aa69 253f
000002f0: 3ab7 1c3f c2b5 cfbe 42b4 c43e 6ad0 9dbe
00000300: bab1 d1bd ba1f 09bf 732e cbbd 3e58 483e
00000310: aafb 8ebe 4504 aebe 3695 b43e 1e74 87be
00000320: 54df 963e da96 dc3e ce37 863d 1ed1 2d3f
00000330: 67ab 04bf 2790 1cbe f151 0e3e 3472 71be
00000340: 077f 3bbf 98ea 80be 6720 e43e ceac 3a3f
00000350: 4ce3 82be 0b16 053f 5d5f d43e 1685 9e3e
00000360: 461a e23c 4c8f b83e 061f d33e ddc8 3ebe
00000370: 4ff2 143d 8401 8fbe 5a96 b53e 68ad d53e
00000380: baec 203f 1c31 c73e ab95 febd d184 193f
00000390: f54e ae3e beee 233f de25 da3e 41d9 5d3e
000003a0: 4fce 5dbe 2d17 a5be 896b d9be 9475 aebe
000003b0: 8b6e 0f3e f774 aebe 9e73 aebe f87b 3ebe
000003c0: 889d 153f 4057 09be e73b 3fbe 9072 cf3e
000003d0: 5885 cd3c a2f1 4e3e 8fe8 91be 46bb 213f
000003e0: 82fb 57be b462 843e e60a 003f 0b8a 7b3e
000003f0: 5a7f 59bd 2af8 423f f3e8 c23e bc95 cb3e
-0.20281781 0.3229625 -0.5630967 -0.16610621 -0.17498432 0.7732608 -0.094070025 -0.113838375
-0.28562906 -0.2791404 -0.12027397 -0.16998547 0.21240531 -0.023242244 0.45200324 -0.26136714
-0.21718751 0.77668697 0.41513422 -0.26022935 -0.18600373 -0.38639572 -0.30126163 -0.2808401
-0.16687216 -0.2714822 0.47708634 0.4090764 0.4400234 0.23049915 0.6192666 0.011353131
-0.07250987 -0.50369775 0.30908394 -0.21826157 0.49408904 -0.40193745 -0.18351893 -0.21710816
0.5455298 0.5508226 -0.17101042 0.4502781 -0.29424125 0.49537095 -0.80491006 -0.31530356
-0.04112604 0.46983644 -0.15274408 0.3944783 -0.09605998 0.10414626 0.7034133 0.13836655
0.03203401 0.14594309 0.27579606 -0.48414853 -0.17737052 -0.27863705 -0.0032762615 -0.1776569
0.54321784 0.5055641 -0.10933392 0.33174747 0.06829071 0.45349324 0.31979018 -0.49339485
-0.20884845 0.6718489 0.4981817 0.3907478 0.45307043 0.63303155 0.4703055 0.12509103
-0.04166145 -0.10187374 -0.20112327 -0.1689831 -0.2745733 0.315575 0.33606893 0.14442429
-4.4395206e-06 0.28654897 0.059191953 -0.19306329 -0.008511031 -0.0040988983 -0.28879607 -0.31930414
0.3137891 0.060288697 0.38496804 0.11424053 0.967003 0.54368716 0.15673482 -0.1295237
0.35088488 -0.05352041 -0.12318357 0.2125125 -0.14320464 0.2970916 0.34996736 -0.08261085
-0.35445577 -0.0754435 0.26106706 0.26120824 0.07629521 0.28644508 -0.14999494 0.69472224
0.43335623 0.6963207 0.2333597 0.36654213 -0.13133147 0.05737092 -0.3212736 -0.281606
-0.10816865 -0.28132093 -0.28129375 0.12742881 0.56597847 0.009672052 -0.16233745 0.58286744
0.080011174 0.56528735 0.08074999 0.76815575 -0.12367669 0.44545692 0.58341485 0.47473696
-0.029527739 -0.108117774 0.16841178 0.24800113 0.043422185 -0.24524228 0.41020933 0.40953183
0.537233 0.5836674 -0.2813672 -0.074755564 -0.20838247 -0.41528463 0.5567127 -0.17674875
0.21510077 -0.05425257 -0.147416 -0.4636558 0.2687853 0.50539345 0.72713435 0.052347112
0.38921988 0.36165303 -0.17431967 0.2782362 0.41873664 -0.51835215 0.39386675 -0.57760894
-0.30487946 -0.3123169 0.674633 0.011303335 0.49662158 0.6395325 -0.30647248 0.79130614
0.820653 0.5204597 0.0600406 0.64614356 0.6121708 -0.40568358 0.38418776 -0.3082307
-0.10238977 -0.53564036 -0.09920969 0.19564912 -0.2792638 -0.33987632 0.3527009 -0.26455778
0.2946726 0.4308384 0.06553613 0.6789721 -0.5182404 -0.15289365 0.13898446 -0.23578721
-0.73240703 -0.2517898 0.4455597 0.7291993 -0.2556404 0.5198676 0.41479006 0.30960912
0.027600419 0.36046827 0.41234607 -0.18631311 0.036363896 -0.27930844 0.35466272 0.4173386
0.62861216 0.38904655 -0.12430891 0.59968287 0.34044614 0.64036167 0.42607015 0.21664907
-0.21660732 -0.32244244 -0.42464855 -0.3407408 0.14007013 -0.34073612 -0.34072584 -0.18601978
0.584435 -0.1341219 -0.18675195 0.40517092 0.025087997 0.20209363 -0.2849774 0.6317638
-0.21092036 0.25856555 0.5001663 0.24564378 -0.053099968 0.7615992 0.3806835 0.39762676

l1.bias f4 [8]
00000000: 59c2 413f 2471 473f 2008 903e 4de3 783f
00000010: 9875 ae3e 816a 293f 685f 923e f9dc eb3e
0.75687176 0.77907014 0.281312 0.97221833 0.34074092 0.6617814 0.28588414 0.46067026

l2.weight f4 [8, 8]
00000000: 5b79 813e 6fe9 273f a06f 40be 33d1 8d3e
00000010: 153d 143f cb08 2f3f d277 633f 5c48 4ebf
00000020: 242d c73f 16f2 463c 03e1 32bf de7a 9b3f
00000030: 0540 8bbf a797 a4bd 32d0 7dbe 06f7 fd3e
00000040: 957f 1abf 90ce b43f 949c 33be 246a bc3e
00000050: 6bd7 d83e 6337 9d3f 23ad 29bf 8a2d 1abf
00000060: 282e 00bf 4de0 7b3e 957f 593f 4ae1 21be
00000070: 6f43 833f d720 b03d b261 653f 9a43 d03e
00000080: d94e 9dbe 0653 06be d15c 16bd aba2 0d3d
00000090: bc13 65be 0784 2fbe 1aef 243e 1ee3 debd
000000a0: 7885 a2be 603d 053e f475 c0be e42f b63f
000000b0: c8f2 75bd d99a 14bf 6e86 773f 4bdd 2fbe
000000c0: b430 4e3f 3491 fe3d 488e 443f 28a6 58bf
000000d0: 00e6 2f3f 0ee4 96be ba5b a73e 7845 853f
000000e0: 33b1 a43f 8001 2bbf 6712 483e 55b7 1a3f
000000f0: 3955 cb3e 2869 5abf b2ba 233f 791a 873f
0.252879 0.65590566 -0.18792582 0.2769867 0.57905704 0.6837279 0.88854706 -0.8057916
1.5560651 0.012142679 -0.6987459 1.2146871 -1.0878912 -0.08036738 -0.24786451 0.49602526
-0.60350925 1.4125538 -0.17540199 0.3679973 0.4235185 1.2282528 -0.6627981 -0.6022574
-0.5007043 0.24597283 0.849603 -0.15808597 1.0254954 0.08600014 0.89602196 0.40676576
-0.30724218 -0.13117608 -0.03670961 0.03457896 -0.2237081 -0.17140208 0.16106835 -0.10883163
-0.31742454 0.13011694 -0.3758999 1.4233365 -0.060045987 -0.5804878 0.966895 -0.1717426
0.80543065 0.12430039 0.76779604 -0.84628534 0.6871033 -0.29470867 0.3268717 1.0411825
1.2866577 -0.66799164 0.1953827 0.6043599 0.39713457 -0.85316706 0.6395675 1.0554954

l2.bias f4 [8]
00000000: f234 aabc 4771 3c3f a6b9 2f3f b759 3f3c
00000010: 2df8 9fbe 71a0 f73e f2f3 a4bd dde2 3bbe
-0.0207772 0.7361035 0.6864265 0.0116791045 -0.3124403 0.48364595 -0.080543414 -0.1834826

l3.weight f4 [7, 8]
00000000: 20ba 8f3d 8772 54bf c64d 2dbe 7b42 2d3f
00000010: 9bfc bfbd e1be 82bf e13c ad3e 8f28 9dbf
00000020: 80df 5fbf ef40 20bf 536b 7dbf 453a c03e
00000030: 7637 533e a216 9bbf 3dde 493f 01db 513e
00000040: 9d94 dabf b5a0 553f b1f8 65bf 7447 8bbf
00000050: 5989 fe3d cafd 4abe c2f9 da3e 0db3 713e
00000060: 901b fbbe 1ccc 143f a522 0a3f 1a0e 68bf
00000070: 18d6 4fbe 866e 073f 288d 5dbf f7f9 a3bf
00000080: f8b0 bc3e a154 603e baf8 9dbf bef8 09bf
00000090: d33c ae3c f264 b53e 5548 d8bf 3e07 113e
000000a0: feec 033e 1638 84bf 5317 38bf e8bd 063f
000000b0: fb07 54be 397c b13e 5106 17bf bff1 543e
000000c0: 9fe0 1e3f 7991 98bf 336e 6d3f beec 73be
000000d0: 0f68 8b3e 6376 b2bf 1345 c7bf 815f 4bbf
0.070179224 -0.82987255 -0.169242 0.67679566 -0.093743525 -1.0214502 0.3383551 -1.2278003
-0.8745041 -0.6259908 -0.9899189 0.37544456 0.20626625 -1.2116282 0.78854734 0.204937
-1.7076603 0.83448344 -0.898326 -1.0881181 0.12428541 -0.19823375 0.42768675 0.23603459
-0.49044466 0.58123946 0.53959113 -0.9064652 -0.20296514 0.5290302 -0.8654351 -1.2810658
0.36853766 0.21907283 -1.234153 -0.53895175 0.021269238 0.35428578 -1.6897074 0.14162919
0.12883374 -1.0329616 -0.7191059 0.52633524 -0.2070617 0.34665087 -0.58994013 0.20795344
0.62061495 -1.1919395 0.92746276 -0.23820779 0.27227828 -1.3942379 -1.5567955 -0.794426

l3.bias f4 [7]
00000000: fd8b e8bd a5d1 6d3d 2a25 bd3e 3869 c03e
00000010: 564e 07bf 93b0 3fbe 991d 803e
-0.11354826 0.05806126 0.36942416 0.37580276 -0.52853906 -0.18719701 0.2502258
