data.pth (torch, 5591 bytes, 6 tensors)

l1.weight f4 [8, 65]
000000 1e e1 1e 3e d8 29 17 be cd a3 f6 be 57 c2 e2 bc
       0.15515563 -0.14762056 -0.48171845 -0.02768056
000010 d5 80 60 bd 95 59 c2 3e bc 1e 11 bf 1c 28 43 3f
       -0.054810364 0.3795897 -0.5668752 0.7623308
000020 2c d1 2b 3f be f0 34 3f f1 b3 8f 3e bb 9d 14 be
       0.67116046 0.70679843 0.28066972 -0.14513294
000030 d2 1a ff 3e 53 8f c6 be ef 17 0b be 5d 00 64 be
       0.4982515 -0.38781223 -0.13583349 -0.22265764
000040 05 24 b5 3e a8 ec af 3e 52 2f 4e 3e 86 c9 20 3e
       0.35379043 0.34360242 0.20135239 0.15701875
000050 74 94 13 3e 19 44 41 3f 3f f3 82 be e4 dc 0b 3f
       0.14412099 0.75494534 -0.25576207 0.5463393
000060 de 65 fa 3e 22 67 50 be f8 26 fa 3e 0c 0c 1f 3f
       0.48905843 -0.20351842 0.48857856 0.6212776
000070 2e 8f 06 be 42 14 44 be de 14 10 be 1d 84 18 3f
       -0.13140556 -0.19148353 -0.1407046 0.5957659
000080 77 fb 24 be 9b ad d2 3e d4 dd 35 be 41 6b 6f 3e
       -0.16111551 0.41148075 -0.17760402 0.23380758
000090 36 c2 2b be b7 b4 2d 3f 61 2f bc 3d bd 99 02 3f
       -0.16773304 0.67853874 0.09188724 0.51015836
0000a0 8e f6 ba 3e 46 2a ae 3e 36 cf 11 3f 27 b8 be be
       0.3651623 0.34016627 0.56956804 -0.37249872
0000b0 c5 26 5b be 43 21 0b 3e 4f 7c 76 3e 1e 57 84 be
       -0.21401508 0.13586907 0.24070857 -0.25847715
0000c0 f3 87 93 3e 6a 1d 9d be 0f 4c 74 be 12 9b 9f 3e
       0.2881466 -0.30686504 -0.23857139 0.31172997
0000d0 7d 2e 6f 3f 38 a8 14 be ed a7 b4 3e 0b 83 a3 be
       0.9343031 -0.14517295 0.35284367 -0.31935915
0000e0 2b f5 ee 3e 6e d9 2c 3e 83 fa ef bc 56 3e 8e 3d
       0.46671423 0.16879818 -0.029294258 0.069454834
0000f0 04 42 03 3f 9b c6 a8 3e c3 10 9d 3e d9 b4 25 3e
       0.51272607 0.32964024 0.3067685 0.16182269
000100 bf 27 30 3f 04 e6 16 3e 42 04 ab 3e 2a 94 1c 3e
       0.6881065 0.14736181 0.33401686 0.15290895
000110 f2 a0 9c 3e 95 69 aa 3e 3e 95 19 3d e2 5c db 3e
       0.30591542 0.33283678 0.037495844 0.428443
000120 26 40 3a be 79 8f f4 bd 16 5a 53 bd 58 00 0e 3e
       -0.18188533 -0.11941428 -0.051599585 0.13867319
000130 1a 8d 1b 3f 9c b2 fe bd ba ba 0f 3f 42 43 ee 3e
       0.6076218 -0.12436411 0.561443 0.4653569
000140 17 c1 0a 3e 30 60 9e be ab 5f 3d be c7 70 06 bf
       0.1355022 -0.3093276 -0.18493526 -0.52515835
000150 cf 4c 81 be 6a a9 32 3d c8 87 0c 3f 58 06 0c 3f
       -0.25253913 0.043618597 0.54894686 0.5469718
000160 d6 cb cf 3e 54 03 eb be 89 dd 12 3f 57 02 0f be
       0.40585202 -0.45900977 0.57369286 -0.13965736
000170 7b e3 e4 bd 80 7e 93 3e ac e4 ef 3e 8e d2 8f 3e
       -0.11176201 0.2880745 0.4685415 0.28090328
000180 78 45 73 3b 82 8c 3b 3f 04 ca 16 3f b8 0c 2a 3f
       0.0037120264 0.7326127 0.58902 0.6642566
000190 5e 93 80 be e8 46 0c 3f 96 83 f6 3e 83 e6 af bc
       -0.25112432 0.54795694 0.48147267 -0.021472221
0001a0 64 63 de 3e d1 c4 04 bf a2 9d ed 3e 93 9f 17 bf
       0.43435204 -0.5186282 0.46409327 -0.59227866
0001b0 58 2f 1f 3e 56 44 26 3f c5 0a ce bd 9c 4f 82 be
       0.15545404 0.6494802 -0.10060648 -0.25451362
0001c0 11 4a b1 3e 3e 55 fc 3e f2 bb a0 3e e2 95 a4 3e
       0.3462682 0.49283785 0.3139339 0.32145602
0001d0 64 10 03 bd d6 51 d5 3e 39 67 2a 3f 15 97 d6 bd
       -0.031998053 0.41663998 0.66563755 -0.10478035
0001e0 40 00 50 3f dc de ba 3e a5 20 c9 be 41 f5 b8 3e
       0.8125038 0.36498153 -0.39282718 0.36124614
0001f0 e1 33 00 3f 93 8e e2 bc 0f 80 83 3d 2e 8e 04 3e
       0.5007916 -0.027655875 0.064209096 0.12944862
000200 a2 10 9a bc 0f 63 90 be 8f a2 d1 3e b6 fa a2 be
       -0.01880676 -0.28200576 0.40944335 -0.31831902
000210 cd f9 1d bf 49 94 76 bb 3b b0 7c be b8 f9 d6 3e
       -0.6170929 -0.0037625006 -0.24676602 0.41987395
000220 66 f1 1d bf 7f 39 10 3f a1 69 1d 3f 7a 53 12 3f
       -0.6169647 0.5633773 0.614893 0.57158625
000230 39 c4 b1 3e b9 14 37 be 14 3b 83 3e e8 0f 25 be
       0.34720019 -0.17878999 0.2563101 -0.16119349
000240 fb 9b 96 bd 26 7c e0 be a9 9a cc 3e 27 69 7d bd
       -0.0735397 -0.43844718 0.39961746 -0.06186786
000250 68 83 04 3f e9 cf 12 3f 80 df 33 3e a2 02 3e be
       0.5176301 0.57348496 0.17565727 -0.18555692
000260 4a 46 3a bd 29 13 82 3e 08 f6 98 3e f9 85 9a be
       -0.04547719 0.25405243 0.29875207 -0.30180338
000270 8e ff ab 3e aa 84 a9 3e fc c8 ae bd 4f 21 46 be
       0.3359341 0.33109027 -0.085344285 -0.19348644
000280 83 a4 5c be 56 2a b4 3e e3 dd 2c be 61 a6 25 3e
       -0.21547131 0.3518855 -0.16881518 0.1617675
000290 3a a6 8e be d1 4a 10 3e be 55 3b be f1 b3 8b 3e
       -0.27861196 0.1409104 -0.18294427 0.27285722
0002a0 18 ac 97 3e 0a 23 15 be f6 5f df bd 23 66 a1 be
       0.29623485 -0.14564148 -0.10906975 -0.31523237
0002b0 f5 f8 08 3e 75 39 86 be 97 b4 b5 be b2 68 99 3e
       0.1337622 -0.2621571 -0.35489342 0.2996269
0002c0 79 43 3c be 8b 98 4f be 69 c3 4b be 59 af 48 be
       -0.18385114 -0.20273034 -0.19898762 -0.1959814
0002d0 66 95 0b be c9 ed 99 3e c0 37 4a 3e 03 51 2e be
       -0.1363121 0.30064228 0.1974783 -0.17023091
0002e0 d9 04 4d 3e cf f6 25 be 95 af 85 3e f3 f8 ea 3e
       0.2002138 -0.16207431 0.2611052 0.45893058
0002f0 2c 71 66 be f7 39 b9 3d 69 16 23 3f e5 8a 58 3e
       -0.22504109 0.09044259 0.6370607 0.21146734
000300 ae 1d 73 3e 75 1b 82 3e 78 ad f6 3e 5e be 15 be
       0.2374179 0.25411573 0.4817922 -0.146234
000310 7d e5 5d be 86 8e 35 3f 5d 5f 92 bd e0 5c 4f 3e
       -0.21669574 0.709206 -0.07147095 0.20250273
000320 d2 38 c5 bd 49 50 59 3f 6c 28 b1 be 93 e7 b8 be
       -0.09629978 0.8488813 -0.34601152 -0.36114177
000330 c5 91 a9 bd 51 3e 12 3d 73 bd 87 3b a9 e2 58 bd
       -0.082797565 0.03570396 0.004142457 -0.052950535
000340 ec ee de be 02 6d 21 be 05 d8 27 3f e9 72 da be
       -0.43541658 -0.1576424 0.65563995 -0.42665794
000350 69 f1 ea 3e b0 86 e1 be 5c be da be 6e d6 2b be
       0.45887306 -0.4404807 -0.42723358 -0.16781017
000360 4c 3a 8d be a0 ac 6a bd 25 f0 f5 bd 97 a2 06 3f
       -0.2758354 -0.057293534 -0.120086946 0.5259184
000370 d6 3d 88 be a7 9f 28 be a3 d7 79 bd 2e 3e 99 be
       -0.26609677 -0.16467153 -0.060996663 -0.29930252
000380 eb d9 19 be 43 3f e7 bd 19 bf 6b be 76 e2 ed bd
       -0.15024535 -0.11291363 -0.23022117 -0.116154596
000390 a4 41 4c be 08 7b 90 bd 99 8a 17 3f 34 f9 5e bd
       -0.19946915 -0.07054716 0.5919586 -0.054436877
0003a0 a8 84 eb bd 78 c9 22 3c 11 38 fb bd f5 52 3a 3f
       -0.114999115 0.009935729 -0.12266553 0.7278283
0003b0 d7 eb 0b bd 0f be 21 3f 4e 58 e1 3e 52 2d b2 bd
       -0.03416046 0.6318063 0.44012684 -0.087000504
0003c0 b2 3f ad bd 84 3d ee 3e d4 0a 06 bd f7 af 18 be
       -0.084594145 0.46531308 -0.03272517 -0.14910875
0003d0 de c3 42 be f3 a0 10 bd fa 4f fb bd fe 9c a7 bd
       -0.1902003 -0.035309743 -0.12271114 -0.08184241
0003e0 29 81 ed bd 76 08 0a 3f 7a e9 b1 be db e6 8f bd
       -0.11596901 0.5391916 -0.3474844 -0.07026454
0003f0 b4 72 da be 41 a4 2a be c3 60 05 3e bb f3 cf be
       -0.42665637 -0.1666422 0.13025193 -0.4061564

l1.bias f4 [8]
000000 d4 8e 13 3f 35 67 4b 3f e5 f1 1d 3f cd 8e da 3e
       0.57639813 0.79454356 0.61697227 0.42687073
000010 ed c7 f1 3e b8 e7 2d 3f 2b 47 51 3f fb c8 1d 3f
       0.47222844 0.679317 0.8174922 0.61634797

l2.weight f4 [8, 8]
000000 b1 a9 fd 3d 82 92 26 3f 77 1a cb 3e 39 ba 3d bf
       0.12385882 0.65067303 0.3966863 -0.7411228
000010 60 03 95 be 39 d2 9f bf 81 fa a3 3f 11 d8 18 3f
       -0.29104137 -1.248603 1.2810823 0.5970469
000020 14 5e ec 3d 93 1d 4e 3f 20 bb 0e bf 1a be 49 bf
       0.115413815 0.80513877 -0.5575428 -0.78805697
000030 ab 64 05 bf b4 b3 fa 3d e7 c5 0b 3f 7f 37 57 bf
       -0.5210673 0.12241307 0.5459885 -0.84069055
000040 70 c3 47 3f 42 66 ef be 36 ea 75 3d 1e c5 6d 3f
       0.7803259 -0.46757704 0.060037814 0.928789
000050 38 64 8b 3f da e8 4a 3f 7a 14 53 3f 10 1b 9d bd
       1.0889959 0.79261553 0.8245312 -0.076711774
000060 a8 45 59 bf f2 5d c6 3f be 59 b7 bf cb e6 b3 3d
       -0.8487191 1.549742 -1.4324262 0.08784255
000070 c6 30 69 bd 69 69 83 3e a9 f6 74 3f ea 90 2e 3d
       -0.05693128 0.2566636 0.95688874 0.04261867
000080 0a bf 55 be e2 1d 9b be 37 bd 1a be 80 2d 28 be
       -0.20873657 -0.30296236 -0.15111242 -0.16423607
000090 9e 75 66 be 80 f8 f0 3d 10 d4 94 be 8d fb 53 be
       -0.22505805 0.117661476 -0.2906804 -0.20701428
0000a0 be 68 a8 3f 52 45 57 3d 3b 68 a8 3f cd 56 53 bf
       1.3156965 0.052556343 1.3156809 -0.8255432
0000b0 a4 3b 02 bf d6 9b bd be 44 bd 8c 3f 4d a0 69 3f
       -0.50872254 -0.37032956 1.0995259 0.91260225
0000c0 2e bb 87 3f f0 28 23 3f 2e 34 30 3f 03 5a 28 bf
       1.0603998 0.6373434 0.6882962 -0.65762347
0000d0 67 e0 5e be 92 8d ad 3f f3 34 45 bf c6 9d 03 bf
       -0.2176529 1.3558829 -0.7703392 -0.5141262
0000e0 4a d0 b6 be 0c 4a 5b 3f 38 7d 48 bf 87 fb 49 3e
       -0.35705787 0.8565986 -0.7831607 0.19724856
0000f0 2c 54 a4 3f ec 1a 02 3f ea 9d 80 3f 76 e0 6b bf
       1.2838187 0.5082233 1.0048192 -0.92139375

l2.bias f4 [8]
000000 4f 21 f6 bd b3 7a 86 3e e3 2d 6e 3e 8b f5 39 3f
       -0.12018072 0.26265487 0.23259692 0.72640294
000010 04 f0 42 be 36 19 3c 3f d2 2d 18 3e 27 6a 37 3e
       -0.19036871 0.7347597 0.14861229 0.17911588

l3.weight f4 [7, 8]
000000 e0 65 0b bf 76 a5 1f 3f e4 76 c8 bf 9b 32 35 3e
       -0.54452324 0.6236185 -1.5661283 0.17695086
000010 00 e0 ef 3b 90 11 91 bf df 45 45 3f cb 76 cf bd
       0.007320404 -1.1333485 0.7705974 -0.1013008
000020 ae 41 13 bf a3 9e f1 be dc 96 3e 3f 1a f7 b8 bf
       -0.57522094 -0.47191343 0.74448943 -1.445041
000030 d7 93 9d be 97 59 8e bf 13 2e 00 bf 07 23 32 bd
       -0.30776855 -1.1121091 -0.50070304 -0.043490436
000040 7d 63 a7 bf ac 0a 8b bf 0f a1 99 3e 75 9a 1f 3f
       -1.3077236 -1.0862632 0.3000569 0.6234506
000050 b0 3c 03 3e 5e e3 13 bf 30 9d f4 bf f2 2c d8 3d
       0.12816119 -0.5776881 -1.911047 0.10555448
000060 cf 92 e9 bf b7 7e 66 bf fa 67 82 be 5c 17 80 bf
       -1.8247927 -0.900371 -0.25469953 -1.0007129
000070 d6 42 45 3e df 8a d7 3e 65 2c 40 3f 45 23 7e bf
       0.19263777 0.42098138 0.7506774 -0.9927257
000080 7a 0e 72 be 9a fd 8a 3e 9f 32 e9 be 48 44 6c be
       -0.23638335 0.27146608 -0.45546433 -0.23072922
000090 d9 73 19 be d6 d2 b1 be 9d 46 93 3d 7c 47 84 ba
       -0.14985599 -0.34731168 0.07191203 -0.0010092105
0000a0 0f ca 0c 3f 83 68 2f 3f ef af af bf ec 56 bf 3e
       0.54995817 0.6851885 -1.3725566 0.37371004
0000b0 22 1c 7d 3e c2 3f d7 be 79 20 ae bf de 50 14 bd
       0.24717763 -0.4204083 -1.360366 -0.036209933
0000c0 5f 2d 3b 3f 0c e3 1e bf 7d e8 6b bf 03 0b 18 bf
       0.73116106 -0.62065196 -0.92151624 -0.593918
0000d0 40 07 8c bc 7a 09 3d 3f 81 8b af bf 39 ce 56 bf
       -0.0170933 0.73842585 -1.3714448 -0.8390842

l3.bias f4 [7]
000000 df 2f 65 be 0d 17 0d be ad ff 76 3e ba d2 18 3f
       -0.22381543 -0.13778324 0.2412097 0.59696543
000010 e0 62 36 bf 88 1a ed be 29 c6 89 3e
       -0.7124462 -0.46309304 0.26908997
