data.pth (torch, 5015 bytes, 6 tensors)

l1.weight f4 [8, 54]
000000 d9 f1 ae 3e 74 a5 72 be 7f 23 c1 3e d6 04 d3 be
       0.3416889 -0.23695928 0.37722394 -0.41214627
000010 d2 3a 58 3e 0c 69 be be c5 a5 b0 3e 70 5e ec 3e
       0.21116188 -0.3718952 0.34501472 0.461658
000020 a7 be f6 3e f9 92 f6 3e 6f aa 72 be 62 d7 08 be
       0.4819233 0.48159006 -0.23697828 -0.13363412
000030 bb d3 00 3f 7d 8d bc bd 7c 79 5b bd da 6c 50 be
       0.50323075 -0.09206674 -0.053582653 -0.20354024
000040 fe 6c fd bd 66 98 be be cc 45 10 3f 50 6f b0 be
       -0.12374304 -0.37225646 0.563565 -0.34459925
000050 75 77 a2 3e 3f 6b be be 9c 2d be be 82 a0 12 bf
       0.31731763 -0.37191197 -0.37144172 -0.57276165
000060 d9 fd 1a be 5a e7 ba be b0 cd 3c 3f 8e c6 c0 be
       -0.15135898 -0.36504632 0.73751354 -0.37651485
000070 49 1d 17 3f 69 63 96 be ec b1 da be 89 ad d2 bd
       0.5902906 -0.2937272 -0.4271387 -0.102870055
000080 59 f8 e5 3d a9 fa b2 3e 62 37 20 bc 07 1b 42 be
       0.11229009 0.34956864 -0.009778829 -0.18955623
000090 19 5e 26 3f 32 10 0b 3f 48 2d a7 3e c7 b7 3e 3e
       0.6498733 0.5432159 0.32651734 0.18624793
0000a0 68 32 c7 be 07 2b 38 3f 42 24 12 bd 86 ea 1c be
       -0.38905644 0.71940655 -0.03567911 -0.15323839
0000b0 91 a8 ae 3e 1b 64 1f be d7 93 26 3f b6 48 4e 3e
       0.3411298 -0.15565531 0.65069336 0.20144925
0000c0 b9 33 d2 3e 22 79 6e 3f 9f b6 fa bd fb b0 24 3f
       0.41055086 0.93153584 -0.122418635 0.6433255
0000d0 82 2d 6a 3e 00 61 e7 3e 09 b7 f3 3e 12 6e 28 3d
       0.22868922 0.45191193 0.47600582 0.041120596
0000e0 12 c3 94 be 9b 76 b3 3e a5 90 5f 3e d6 31 c4 be
       -0.29055077 0.35051426 0.21832521 -0.38319272
0000f0 7f a8 bc bd e5 9b 0c 3d 57 4d 07 bf 09 74 fe bd
       -0.092118256 0.03432836 -0.52852386 -0.12424476
000100 de 76 c4 3e df c5 49 be 29 0a be be 4a a4 4a be
       0.38371938 -0.19704388 -0.37117127 -0.19789234
000110 25 43 7e be f6 9e 6b bd f3 68 0f 3f 83 4b c0 be
       -0.24830301 -0.057524644 0.56019515 -0.3755761
000120 ce 48 8c bd 30 b4 e2 3e 14 ba b8 3e 28 10 eb 3e
       -0.06849824 0.44278097 0.36079466 0.45910764
000130 5b 81 f1 3e 64 c7 fa 3e f2 50 84 be ae 65 14 3e
       0.47169003 0.48980248 -0.25843006 0.14491913
000140 93 08 6f be 1e 02 c2 be 1d 5f 84 be 54 f2 01 be
       -0.23343115 -0.3789224 -0.25853816 -0.12690097
000150 22 34 39 be c1 92 d1 be 2a 4c 83 3e f8 35 32 be
       -0.18086293 -0.40932277 0.25644046 -0.174034
000160 51 b7 00 be 50 5d 44 3d 36 47 83 be 1d 2a 01 bf
       -0.1256993 0.047940552 -0.25640267 -0.50454885
000170 84 9c 57 be 10 55 f8 bd 6e 9b 83 be 24 2a 22 be
       -0.210558 -0.121255994 -0.2570452 -0.15836388
000180 ee 82 0d be 1e eb 5e be 3b eb bf be d2 47 11 be
       -0.13819477 -0.21769378 -0.37484154 -0.14187554
000190 6a 60 43 3f fc 2d cc 3e 92 43 1e 3e 57 0f 86 be
       0.7631899 0.39878833 0.15455464 -0.26183578
0001a0 93 62 1b 3c cb d7 97 3c 1a 17 50 bd bd 9a d1 3d
       0.009483951 0.018535515 -0.05080328 0.10234592
0001b0 81 d2 00 3f 8e c9 48 3e 16 f1 22 3f 29 60 cb 3e
       0.50321203 0.19608137 0.6364912 0.39721802
0001c0 60 2a b4 3e a7 34 a8 bc 5c 30 56 3f bc f1 06 3f
       0.3518858 -0.02053292 0.8366754 0.5271261
0001d0 a6 3b 33 3f db 1e bb 3e 3c cf 50 3e a3 6c 6b be
       0.7001289 0.36546978 0.20391554 -0.2299066
0001e0 99 7d 3f be ab 21 98 be cb e6 f2 3c e2 26 52 be
       -0.18700255 -0.29713187 0.029651066 -0.20522645
0001f0 c0 52 e5 3e e4 35 35 bc cd fa ca be 99 9b 03 3f
       0.44789696 -0.011060212 -0.3964447 0.514093
000200 f7 ae 99 3e 65 13 ff 3e 11 db c8 3e b2 1f 7d 3d
       0.300163 0.49819484 0.39229634 0.061797805
000210 eb 39 c8 3e e7 55 b5 3e c7 3e a2 be 2f 9c 7e be
       0.39106688 0.354171 -0.3168852 -0.24864267
000220 9e 09 e6 bd 88 04 2d be e8 7e b9 bd 8b 7a 85 be
       -0.11232303 -0.1689626 -0.090574086 -0.26070055
000230 ca 1d 79 3e cd 23 e1 3e c5 0e a1 3c be 05 b7 be
       0.2432777 0.43972626 0.019660363 -0.35746568
000240 8e fb 52 be 5d 2b 1f 3f 74 48 2e 3f 70 ab 42 3f
       -0.20603773 0.6217554 0.68079305 0.7604284
000250 7b e5 f8 bc 78 ce 07 bf fe e5 6a be cf 10 11 3d
       -0.030382862 -0.5304942 -0.22939298 0.03541642
000260 4b a3 19 be b9 38 6c 3d c7 5e 0b 3f 8f 91 ba 3e
       -0.15003698 0.057671282 0.54441494 0.36439177
000270 cc cb ab 3e 96 b0 cd be 92 f0 92 be 00 ff 77 be
       0.33553922 -0.40173787 -0.28699166 -0.24218369
000280 08 d6 18 3f a1 44 9a 3e 32 fb f5 3e aa 39 ca bc
       0.59701586 0.30130485 0.4804321 -0.0246857
000290 14 9d ce be f0 b6 ca 3e 49 aa 0d bc c1 8c 1b bf
       -0.40354216 0.39592695 -0.008646556 -0.6076165
0002a0 86 9e 5b bd c4 33 b0 be 00 dd b2 be 1c d6 97 be
       -0.053617977 -0.34414494 -0.34934235 -0.2965554
0002b0 c7 54 e1 3e 86 95 4f 3d 7e ef f7 3b cb 51 0d 3e
       0.44009992 0.050679706 0.0075663915 0.13800733
0002c0 6e 79 3e be 8b 27 75 3e d4 97 a7 3e 58 90 1b bf
       -0.18601009 0.23940866 0.32733023 -0.60767126
0002d0 3f 6f b8 3e ad c0 06 3f 4a 22 b2 3e 2a 01 01 3f
       0.36022374 0.5263775 0.34791785 0.503924
0002e0 6a 3d 97 3e f3 db 3e 3e 28 e7 d3 bd 6e 1f 8e 3e
       0.29539043 0.18638591 -0.10346824 0.27758354
0002f0 06 5b eb 3e 75 ce 9b be 04 d6 62 3e 27 c3 b6 be
       0.45967883 -0.30430952 0.22151953 -0.35695764
000300 30 87 af be 26 30 78 bd 6f b0 bd 3e ab 90 90 be
       -0.34282827 -0.060592793 0.3704867 -0.28235373
000310 aa 9d 69 be 3b dc 6e 3d fe fc 70 3e a2 0c a4 be
       -0.2281405 0.058315497 0.23534009 -0.32040888
000320 79 96 45 be 2b 39 8b bd 2a e3 a2 be 32 7c d8 3e
       -0.19295682 -0.06798013 -0.31813937 0.42282254
000330 da 8b a0 3c f5 5d d9 3b a2 1c 39 bd 80 e9 4f be
       0.019597936 0.006633515 -0.045193322 -0.20303917
000340 4e 90 53 3f e7 ab dd 3e 45 53 c4 3e 23 aa f6 3e
       0.82642066 0.43295214 0.3834478 0.4817668
000350 94 a2 c7 3d c3 c4 a5 3e e8 1c 42 be b0 6d 90 3d
       0.09747806 0.3237668 -0.1895634 0.07052171
000360 63 23 c5 3e 8d 8e 3e 3f 6f 6a 94 be c9 8a 33 3e
       0.3850356 0.74436265 -0.28987452 0.17533411
000370 d2 90 52 be 1f ba 17 bf d2 e8 59 be 56 f0 d5 bd
       -0.20563057 -0.59268373 -0.2128022 -0.10446231
000380 cd 64 8d be a6 c2 01 be d3 60 95 3e 08 75 b8 bc
       -0.27615967 -0.12671909 0.29175434 -0.022516742
000390 f3 1d d2 bd 5e 7e 60 be 4e 43 e9 3e f3 c7 ce bd
       -0.102596186 -0.21923205 0.45559162 -0.10096731
0003a0 bb f1 f2 3d f8 c0 17 bf 40 a9 23 be f8 12 9a 3e
       0.11862513 -0.5927882 -0.15982533 0.30092597
0003b0 c8 00 89 3e b0 b5 52 3e 82 66 d1 3e 80 76 3d 3e
       0.2675841 0.20577121 0.4089852 0.18502235
0003c0 af f5 9b bd 36 2f 9d 3d f1 b2 85 be e1 19 47 3f
       -0.0761522 0.076750204 -0.26113084 0.77773863
0003d0 da 55 1e bd 65 8a 38 3f 62 3c de be ed 43 d0 bd
       -0.038656093 0.72086173 -0.43405443 -0.10169206
0003e0 33 2b 2f 3e fa 48 e2 be 3b c0 45 3f ef b3 a1 bd
       0.17106323 -0.44196302 0.77246445 -0.07895648
0003f0 00 1f ca 3a cc 80 c6 be 05 82 15 be 42 d2 8c bd
       0.0015420616 -0.3877014 -0.1460038 -0.06876041

l1.bias f4 [8]
000000 d0 5d be 3e 2f b4 3b 3f a1 20 60 3f 81 99 1b 3f
       0.37180948 0.73321813 0.8754979 0.60781103
000010 82 b8 17 3f a8 75 02 3f d6 9f fa 3e f4 b9 4e 3f
       0.5926591 0.5096078 0.4895007 0.8075249

l2.weight f4 [8, 8]
000000 b2 dd 34 bf 69 af 9a 3f b9 60 11 3f 9c 0b 2a 3f
       -0.7065078 1.2084781 0.5678821 0.66423965
000010 d8 ea b1 3f 22 af 34 3e 6e 87 09 3d 6f f5 c3 bd
       1.3899794 0.17644933 0.03357642 -0.09568297
000020 4d 39 3e 3f 88 59 1a 3f 02 09 6d 3f 4d 39 52 3f
       0.74306184 0.60292864 0.9259187 0.82118684
000030 b1 73 41 bd e5 94 9b 3f 6e ce f7 be eb b9 fe 3e
       -0.047229473 1.2154814 -0.4839968 0.4975122
000040 b0 01 92 bd 16 4a 29 3e d2 40 6c be 8c 0d 54 be
       -0.07129228 0.16532168 -0.23071602 -0.20708293
000050 df fe 5a be fb 32 aa be 04 bd 2b be 64 ce fc 3d
       -0.21386288 -0.3324202 -0.16771322 0.123440534
000060 ea 71 57 3f 8f e5 2d bf 1d 3e 77 3f 4c ad 6e bf
       0.84158194 -0.67928404 0.9657915 -0.9323318
000070 4a df 7a 3f 17 3c 73 be 7b c9 cd 3e 14 d3 00 bf
       0.9799696 -0.23753391 0.4019278 -0.5032208
000080 c3 a7 56 3e 70 70 9a be 62 8f 7b 3f 55 24 1e bf
       0.20962434 -0.30163908 0.9826566 -0.6177419
000090 93 9a 2f bf 58 10 a2 bf 56 37 af 3f 2f 65 6c 3f
       -0.68595237 -1.2661238 1.3688762 0.92341894
0000a0 06 eb bf be d3 70 5d 3e 72 79 1b bc 52 75 1c 3e
       -0.37483996 0.2162507 -0.009489404 0.15279129
0000b0 5a d3 38 bf f4 53 16 3f 6f 7d 60 bd fd ae d5 3f
       -0.72197497 0.5872185 -0.054807123 1.6694027
0000c0 d2 bd 84 3f 82 b5 a8 3f fe 3c b0 3f 0b 02 60 3f
       1.0370429 1.3180392 1.3768613 0.8750312
0000d0 8a a0 90 bc 62 88 d0 3e fa c7 03 bf dc 04 0d 3f
       -0.017654676 0.40729052 -0.51477015 0.5508554
0000e0 56 94 87 3f f7 e0 30 3e 6f 37 95 be 07 e6 27 3f
       1.0592144 0.17273317 -0.29143855 0.6558537
0000f0 97 13 6c 3f a7 9b f3 3b 27 06 b0 3f f4 67 0e bf
       0.9221739 0.0074343267 1.3751878 -0.5562737

l2.bias f4 [8]
000000 c1 16 f5 3e 99 07 67 3e a1 af 00 be 83 f8 3b 3b
       0.47868922 0.22561492 -0.12566997 0.002868206
000010 31 97 37 3f 7a bc 45 3f e9 cf 28 3e 57 9c bc 3d
       0.71715075 0.7724072 0.16485561 0.09209507

l3.weight f4 [7, 8]
000000 36 2b c2 bd d5 3b 50 bf 28 2a 62 be 3e c5 1b bf
       -0.09480898 -0.81341296 -0.22086394 -0.6084784
000010 59 95 3b 3f c2 1e c0 3d 9d 22 8c bf 49 e6 8b 3e
       0.7327476 0.093808666 -1.0948063 0.2732413
000020 63 bd 31 3f c1 a1 83 bf 5d 1f 01 be 9b 7a 17 3f
       0.69429606 -1.0283738 -0.1260962 0.59171456
000030 d7 0e bb 3d a5 c0 a8 bf f0 16 5f bf 4b 22 b6 3e
       0.0913369 -1.318379 -0.87144375 0.35573038
000040 c5 e7 8a bd fe 08 fa bd 00 c0 78 3d 73 89 83 bf
       -0.06782488 -0.122087464 0.06072998 -1.0276321
000050 62 23 31 3f 23 27 86 3f ed d9 fd 3d 39 b6 e8 bf
       0.69194615 1.0480694 0.12395082 -1.818061
000060 f3 81 3a 3f db b8 15 3f 06 23 69 3e a7 da 93 bf
       0.72854537 0.5848519 0.22767267 -1.1551102
000070 33 52 95 bf 54 da 17 3f db e5 c8 3e 3a 55 a4 bf
       -1.166571 0.5931752 0.39237866 -1.2838509
000080 e9 b9 92 bf e2 c6 1c 3f b6 31 3f be 90 f0 17 bf
       -1.1462985 0.6124097 -0.18671307 -0.59351444
000090 7c ec 8c bf 43 ea 91 3e 3a db a7 3e 5e 02 b6 3e
       -1.1009669 0.2849904 0.32784444 0.3554868
0000a0 b6 9b 6a bf dd 39 02 be 68 12 8c 3d a5 31 51 3f
       -0.91643846 -0.12717386 0.06839448 0.81716377
0000b0 79 b9 11 3f 4f 0d 54 bf 05 e8 87 3e 87 db 79 be
       0.56923634 -0.8283281 0.26544204 -0.2440015
0000c0 f6 59 01 3f c6 ca c8 bd 88 0d 27 be 05 f2 9b be
       0.50527894 -0.09804301 -0.16313756 -0.30458084
0000d0 0d 93 63 be 1e e6 9d bf d2 ab 07 3f eb 6f 55 3e
       -0.22224064 -1.2335851 0.5299655 0.20843475

l3.bias f4 [7]
000000 9a 46 ae 3e 5b 15 9d 3d 61 4b bf 3c 66 b5 67 be
       0.3403824 0.07670089 0.023351373 -0.22627792
000010 f3 61 ca bd fa 53 2c 3e b4 55 a0 be
       -0.098819636 0.1682891 -0.31315386
